data.pth (torch, 4607 bytes, 6 tensors)

l1.weight f4 [8, 44]
00000000: d0b3 d9be a51e 823f 79b4 dfbd ba18 b93e
00000010: 77dc 023f 8dab 103f 3fc9 f3bd 9566 04be
00000020: 7185 23bf 3745 0cbf 3ec4 cf3e cf54 e6bd
00000030: a726 423f c0ad 153f 8507 913e 5ec2 c7bd
00000040: 8f51 f83e 1182 96be 7239 283f 2df7 2a3f
00000050: d5b8 d43d 1161 a2be 87da 2f3f 82fc ca3e
00000060: f477 413f 2c5c 043f 657c 9dbd ea29 10be
00000070: 22a0 873f d033 b5be 348b 8d3e ccb3 e63d
00000080: cff1 243f 5c70 f2bd 2906 2c3f 312d 343f
00000090: 186e 7c3f 24c4 75bf 8472 76be 955c ad3e
000000a0: 58d1 2abf 35fd 523e fe2e 293f f00c d53e
000000b0: f0cf 0f3f 0f59 4e3f be67 283f 591d 683e
000000c0: 9cbf 263f 6717 ad3d f8bc 05bf 2ee5 0dbe
000000d0: 44cb 173f 2ce9 32bf aba3 823e bb12 40be
000000e0: 1407 db3e cdcf 83bd 233c 7d3e 8cc8 05bf
000000f0: c78d 323f 774e f33e 9c06 df3e dd3c 153f
00000100: 295a 8c3e e6c5 7cbe 27d8 9a3d 59ca c43d
00000110: 1ae8 cc3d e5b6 c5bc 04bc f4be c945 8a3e
00000120: 1609 ec3d fc5c bebe ba2b 64bd 13b4 213c
00000130: 892b e43d 7674 cdbe 23a8 e73c 1014 e93e
00000140: 9d32 383d 58cd 5b3f 35d0 f33e 5e79 b73e
00000150: ac57 36bf ef4c 5bbc fee8 513d acab b73e
00000160: 8838 7fbe 79c8 11be 73b6 5cbf 05d5 af3e
00000170: 5996 893e 6172 c43e 75dc 04bf 3b91 f73e
00000180: e5e5 83bf 02e7 4c3f 0c2e b03e a5ff 033e
00000190: a072 6fbe 6718 d83e cdcf fb3e 3def 02bf
000001a0: ab03 3e3f f90c 4cbe 76f6 253f cacb 293f
000001b0: 02ad 0e3f d545 f13e 7158 403e 622f 0f3f
000001c0: f3c4 d7be 1aa7 9abe a885 0bbe 45dd 49bd
000001d0: 0274 35be 1204 cb3e f8d6 a53e cf7f 87bd
000001e0: dc87 da3e c2cb 34be 3a4c d33e bd32 6fbe
000001f0: 22cb 20be d234 4dbf 3dab b4be bb3a 613e
00000200: f7d5 7b3f f76a 4bbd 4a59 753e 584f 183b
00000210: 8fd4 10be 771f e0be 8eab 2d3f 2562 df3e
00000220: 6a92 c03e eed9 f13e 0345 1ebd 2fc0 fabe
00000230: 4edf 173e b4f6 b0be 1682 b83d df20 b83e
00000240: 259b 3bbe 4403 113f 7045 5f3d 7d4a bbbb
00000250: 2786 e03e ef28 85be 4993 593e 31c3 3d3e
00000260: d9e1 553f 90b5 363f c5d0 2d3f b8ef 7f3e
00000270: f865 8abe abea 86be 5557 053e 7463 b6bd
00000280: f42a 78bd f7ae 513f c8ac 713d eec4 853f
00000290: a65f 1b3f f298 4a3e 34dc 2d3f a726 b0bd
000002a0: 8d0c adbe 7b97 1ebf 305d 87be f034 e13e
000002b0: 30c9 22bf 6e6b 003f 5fbc 2f3f 5084 64bd
000002c0: 10ab d8bd 63a9 443e 4b4e 043e 6f0f b7be
000002d0: ffba 2d3e bb38 03be 22b7 613f b696 f7bd
000002e0: da10 0abc b027 c9be 8960 b5be 0da4 c13e
000002f0: 2069 633e bb19 b6bd 334c d8be 02fa 623f
00000300: cc5a 2fbf 0c1c 08bd 81e0 33bf 2097 3cbf
00000310: 0a53 87be 3910 393e df3b afbd bf05 05bd
00000320: 5046 703e d30e b73e 5ccb 223f 0f59 31bd
00000330: 4d58 9d3e 8690 003f a1ed c83c ef9b 403f
00000340: fce0 33bd 7169 4d3f 2749 403d 6275 ff3d
00000350: f6c8 613e bb57 1ebf 3c52 f0bd e301 c6be
00000360: 54e6 62be 5deb 1b3f 5f94 d8bd 3051 8e3d
00000370: 314b de3d 00ac b23a 60dd 18be 2c10 343d
00000380: c6a6 a23d 0b38 d1bd 5229 d8bd 4414 0d3e
00000390: 6b5c 97bd 0800 b2bd 4be5 b93d 5073 9d3c
000003a0: 3c51 e6bd 186d 9f3d 2fe9 853d f0c7 953c
000003b0: 5457 d63d 6150 b13d 267d c53d 80b1 28bb
000003c0: f070 0e3c c029 7cbd 183c d43d 384c 00bd
000003d0: 20a1 e53d 0ce2 17be 189a f33d d010 adbd
000003e0: a0aa c8bb 88f6 c63d f0b9 b13c 6044 6b3d
000003f0: 3044 cebc 9945 1abe 68cd 303d f03e c53c
-0.4252 1.0165602 -0.10923094 0.36151677 0.5111765 0.56511766 -0.11903619 -0.12929757
-0.6387549 -0.54793113 0.40579408 -0.11246645 0.7584023 0.58468246 0.2832605 -0.097538695
0.48499724 -0.29396108 0.65712655 0.6678341 0.103868164 -0.3171468 0.6869282 0.39645773
0.7557366 0.51703143 -0.07689742 -0.14078489 1.0595744 -0.35391092 0.27645266 0.11264762
0.6443147 -0.11837837 0.671969 0.70381457 0.9860549 -0.9600241 -0.24067122 0.33859697
-0.66725683 0.20604403 0.6608733 0.41611433 0.5617666 0.8060464 0.657833 0.22667445
0.6513612 0.08451729 -0.5224147 -0.13856956 0.59294534 -0.6988704 0.25515494 -0.18757145
0.42778838 -0.06436119 0.24729972 -0.52259135 0.69747585 0.475208 0.4355973 0.58295995
0.27412537 -0.24684867 0.07560759 0.09608907 0.10005207 -0.024135062 -0.47799695 0.27006367
0.115251705 -0.37180316 -0.055705763 0.009869593 0.11141116 -0.40127915 0.028278416 0.4552312
0.044970144 0.85860205 0.47619787 0.35834783 -0.71227527 -0.013385042 0.05124759 0.35873163
-0.24923909 -0.1423663 -0.86215895 0.34342209 0.2687252 0.38368514 -0.5189889 0.4835299
-1.0304533 0.8003999 0.3441013 0.1289049 -0.2338357 0.42206118 0.49181977 -0.511463
0.74224347 -0.19926824 0.64829195 0.6632658 0.5573274 0.4712359 0.18783738 0.55931675
-0.42142448 -0.30205613 -0.13625205 -0.049283285 -0.17720035 0.39651543 0.3239057 -0.066161744
0.42681777 -0.17655852 0.41269094 -0.23359199 -0.15702489 -0.8015872 -0.35286894 0.2199506
0.9837336 -0.049662556 0.23959842 0.0023240652 -0.14143585 -0.43774006 0.67839897 0.43629566
0.37611705 0.4723658 -0.038640033 -0.4897475 0.14831278 -0.3456322 0.09009187 0.3596258
-0.18320902 0.5664561 0.05450958 -0.005715667 0.4385235 -0.26007792 0.21247591 0.18531491
0.8354774 0.7137079 0.6789668 0.24993789 -0.2703092 -0.26350912 0.13021596 -0.08905688
-0.06058784 0.819076 0.059002668 1.0450723 0.6069282 0.19784907 0.6791413 -0.08601122
-0.33798638 -0.6194989 -0.26438284 0.439857 -0.6358824 0.50163925 0.68646806 -0.055790246
-0.105795026 0.19205241 0.12920491 -0.35753962 0.16965865 -0.1281461 0.88170063 -0.12089293
-0.008426869 -0.39288092 -0.35425213 0.37820473 0.22208071 -0.088916264 -0.42245635 0.8866273
-0.6849792 -0.033229873 -0.7026444 -0.736681 -0.2643054 0.18072595 -0.085563414 -0.032476183
0.23464322 0.35753497 0.6359155 -0.043297824 0.3073143 0.50220525 0.024527373 0.75237936
-0.043915734 0.80239016 0.046944764 0.12473561 0.22049317 -0.61852616 -0.11734435 -0.38673314
-0.22158176 0.6090601 -0.105751745 0.06949079 0.108541854 0.0013631582 -0.14928198 0.043960735
0.07941966 -0.102157675 -0.10554756 0.13777262 -0.07390674 -0.08691412 0.09076937 0.019220024
-0.11245963 0.0778448 0.06538617 0.018283814 0.10465875 0.08657909 0.09643011 -0.0025740564
0.008693919 -0.061563253 0.103630245 -0.031322688 0.11212373 -0.14832324 0.118946254 -0.08450472
-0.0061238557 0.09714991 0.021695107 0.057438254 -0.025178999 -0.15065612 0.04316464 0.024077863

l1.bias f4 [8]
00000000: bfb4 753f 0cbc 053f ef2a 4d3f 74e1 2a3f
00000010: b5d5 463f c14e 2dbe d442 4d3f 9967 2b3f
0.9597892 0.5224006 0.80143636 0.66750264 0.7766984 -0.16924573 0.80180097 0.6695495

l2.weight f4 [8, 8]
00000000: 6783 8e3f f4ca 853f 393c 7a3f 5630 5d3f
00000010: f493 42bf 143b 3cbe e7f0 79bf 9d42 5e3f
00000020: ffb8 d73e 164e 883f e0eb e73e 26a1 41bf
00000030: 326d 90bf f3df 20be 9b1a 893f 02a8 7e3f
00000040: c2a7 cbbf 47fe 5b3e 8436 b43c 3751 453f
00000050: 2762 883e 91c7 a63e 818f f33e 9a4c 4dbf
00000060: 417f 923e e037 c33f 1b5d 80bf cc65 053d
00000070: cc59 073f b7d0 563e 27b9 4a3f 829c 533f
00000080: 8cd4 9e3f 0bed eabd 1a7f 6bbe b3d4 83bf
00000090: c3cb 233f 0f28 3e3e 0977 903f c74d 4cbf
000000a0: 2a8f 103f 6535 96bf fdc1 553f 16f8 013f
000000b0: abec ab3f 80b1 083c 5fbf 093e 5d07 003f
000000c0: 6ded 053f c558 5a3e 954c 363e 3741 9f3e
000000d0: 50b0 08be 0ae4 453e 9ea4 aabf 0de2 14bd
000000e0: 40bd 8f3b b20b 533f c969 473f 1d9b bcbe
000000f0: f741 13bf 9bc1 11be 5162 fd3e 2552 583f
1.1133851 1.0452561 0.9774814 0.8640188 -0.7600701 -0.18381912 -0.9763321 0.86820394
0.42133328 1.064883 0.45297146 -0.7563652 -1.1283324 -0.1571043 1.0711244 0.9947511
-1.5910571 0.21483718 0.021998651 0.7707705 0.26637384 0.32574132 0.47570422 -0.8019501
0.28612712 1.5251427 -1.0028414 0.032567784 0.52871394 0.20978056 0.7918877 0.82660687
1.2408614 -0.114709936 -0.22997704 -1.0299286 0.6398279 0.18569969 1.1286327 -0.7980618
0.5646845 -1.1735045 0.8349913 0.50769174 1.34316 0.008343101 0.13451909 0.50011235
0.5231541 0.21322925 0.17802651 0.31104442 -0.13348508 0.19325271 -1.3331487 -0.03634839
0.004386574 0.8243972 0.7789579 -0.36837092 -0.5752253 -0.14234011 0.49489072 0.8450034

l2.bias f4 [8]
00000000: c403 463e d849 c83e 185c 1a3e 5391 f53e
00000010: d6bd 1a3f 8a3c fd3e bcb2 12bf fe5d 803e
0.19337374 0.39118838 0.15074193 0.47962436 0.60445917 0.4946025 -0.57303977 0.2507171

l3.weight f4 [9, 8]
00000000: 850a 643e e7d5 b1bf 9ed2 76bf 0f36 0b3f
00000010: b79b a0bf f3f9 e83e c227 0cbf ee3e bbbe
00000020: 66b5 b7be 2b12 b3be 2334 2a3f 9e52 093f
00000030: 9e86 56bf 18ba a1bd 8e12 73bf 35c2 a5bf
00000040: f35b 48bf 1b1b 5e3e 3b4b 4fbf 6e14 6b3e
00000050: 2f1c 593f fbb1 03bf 1441 15bf 100c 56bf
00000060: 985f b3bf 7f83 98bf e42e 95bf d20e c03e
00000070: d87f e73e a236 7b3f 3bf9 62bf eadb debf
00000080: 42af 553f 28a8 f73e 52f1 7dbf 6c60 b5be
00000090: f8d5 1abf 5f4a 1ebf 96e4 2dbf f279 f83d
000000a0: f113 0e3e dfe0 c1be f609 163f c7b0 92bf
000000b0: 5fb2 79bf 80bc 333f f57e 85bf 3639 fdbf
000000c0: d65b 1b3f 07f4 6ebf 920a 9bbf bb90 90bf
000000d0: 1113 0fbf d849 1a3e e988 143f fbd1 8bbf
000000e0: 42c7 13bf 7ed9 533f c95a 79be 7a87 3b3f
000000f0: bb87 c5be 69fd c7bf ba2f 80bf 36bc d63c
00000100: 57a6 4dbf a51f 283f cb07 f0bd 25b4 6ebf
00000110: 841a 2b3e d64c e93d e058 afbf 0123 123f
0.22269638 -1.3893403 -0.96415126 0.5437936 -1.254752 0.45503196 -0.54748166 -0.3657145
-0.35880584 -0.349748 0.66485804 0.5364169 -0.8379916 -0.07896823 -0.9495019 -1.2949892
-0.78265303 0.21690027 -0.8097417 0.22957012 0.8480863 -0.5144345 -0.58302426 -0.83612156
-1.4013548 -1.191513 -1.1654935 0.37511307 0.45214725 0.9813024 -0.88661546 -1.7410862
0.8347055 0.4837048 -0.9919635 -0.35425127 -0.6048274 -0.6183223 -0.6792692 0.12132634
0.13874795 -0.37866876 0.5860895 -1.1460198 -0.975378 0.70209503 -1.0429369 -1.9783084
0.60687006 -0.93341106 -1.2112601 -1.1294168 -0.5588847 0.15067232 0.5802141 -1.0923456
-0.5772592 0.8275374 -0.24351038 0.73253596 -0.38580117 -1.562421 -1.0014565 0.026212793
-0.8033194 0.65673286 -0.117202364 -0.9324363 0.16709334 0.113916084 -1.3698997 0.5708466

l3.bias f4 [9]
00000000: d58c 2f3d c76c ccbb 90f8 e8bd 0811 f83e
00000010: 0cee 773d a318 c4be 0df4 00bf f190 b6bd
00000020: 44ea b4be
0.042858917 -0.006238553 -0.113755345 0.48450494 0.060529754 -0.38300046 -0.5037239 -0.08914364
-0.3533498
